…
======================>..] - ETA: 0s9406464/9406464 [==============================] - 3s 0us/step
WARNING:absl:At this time, the v2.11+ optimizer `tf.keras.optimizers.Adam` runs slowly on M1/M2 Macs, please use the legacy Keras optimizer instead, located at `tf.keras.optimizers.legacy.Adam`.
Model: "sequential"
_________________________________________________________________
 Layer (type)                Output Shape              Param #   
=================================================================
 mobilenetv2_1.00_224 (Func  (None, 7, 7, 1280)        2257984   
 tional)                                                         
                                                                 
 global_average_pooling2d (  (None, 1280)              0         
 GlobalAveragePooling2D)                                         
                                                                 
 dropout (Dropout)           (None, 1280)              0         
                                                                 
 dense (Dense)               (None, 512)               655872    
                                                                 
 batch_normalization (Batch  (None, 512)               2048      
 Normalization)                                                  
                                                                 
 dropout_1 (Dropout)         (None, 512)               0         
                                                                 
 dense_1 (Dense)             (None, 256)               131328    
                                                                 
 batch_normalization_1 (Bat  (None, 256)               1024      
 chNormalization)                                                
                                                                 
 dropout_2 (Dropout)         (None, 256)               0         
                                                                 
 dense_2 (Dense)             (None, 16)                4112      
                                                                 
=================================================================
Total params: 3052368 (11.64 MB)
Trainable params: 792848 (3.02 MB)
Non-trainable params: 2259520 (8.62 MB)
_________________________________________________________________
✓ Model compiled with 3,052,368 parameters

[4/6] Training model...
Epoch 1/25
   1/10
…
